cnn/mnist/mlp/best_mlp_mnist_model.pth (torch, 475850 bytes, 6 tensors)

fc1.weight f4 [128, 784]
000000 30 62 0a 3e f1 32 de 3d 6a 82 9a 3d 15 a6 4d 3d
       0.13514018 0.1084956 0.07544406 0.050207216
000010 c5 a9 2c 3d 87 58 f8 3c 45 80 f3 bc 72 03 f5 bd
       0.042154092 0.03031565 -0.02972425 -0.11963548
000020 64 bc 28 be 48 35 06 be 0c 1a d6 bd c0 d2 1c be
       -0.16478115 -0.13106263 -0.10454187 -0.1531477
000030 54 72 57 be 26 d1 3b be aa 10 40 be 27 22 3a be
       -0.21039706 -0.18341503 -0.18756357 -0.1817709
000040 f8 ac 3d be 1d 62 37 be 44 26 41 be 78 8d 6c be
       -0.18523014 -0.17908521 -0.18862253 -0.23100841
000050 d7 a1 3e be 15 19 2f be b4 35 15 be fb fb 19 be
       -0.18616425 -0.17099412 -0.14571267 -0.15037529
000060 29 10 b1 bd 00 8f 70 bd cf 15 81 bd c6 66 fd bc
       -0.086456604 -0.058730125 -0.06302988 -0.030932795
000070 6f d4 ad 3d 4a 4c ae 3d 97 28 ab 3d c3 cb ae 3d
       0.08487784 0.08510645 0.08357351 0.08534958
000080 a3 c1 e1 3c 71 71 1a bd 52 a9 c1 bd 49 20 7b bd
       0.027558153 -0.037705842 -0.094561234 -0.061310086
000090 f1 4d 23 be 8e 12 2d be b9 4f 13 be 1b fd 3b be
       -0.15947701 -0.1690161 -0.1438588 -0.18358271
0000a0 b3 fa 48 be 6d 24 28 be 6a 84 04 be a1 7e 0d be
       -0.19626884 -0.16420145 -0.12941137 -0.13817836
0000b0 3d 08 11 be 72 36 e5 bd 0c 02 3e be d1 2f 1e be
       -0.14163299 -0.11192025 -0.18555468 -0.15447928
0000c0 b4 42 1f be b5 6c da bd 5b d4 04 be aa 6c b0 bd
       -0.15552789 -0.106652655 -0.12971632 -0.08614476
0000d0 c8 03 9c bd 41 e0 a2 bc 10 56 8a bd 34 47 45 bd
       -0.07617909 -0.019882323 -0.06754696 -0.048163608
0000e0 96 29 80 3d d6 45 b1 3d 67 40 39 3d 69 b3 05 3d
       0.06257932 0.08655898 0.045227434 0.032641802
0000f0 d3 31 52 bc f0 c8 87 bc 3d f4 8e bc 4e b8 41 bd
       -0.012829262 -0.016575307 -0.017450446 -0.047294907
000100 a5 c7 88 bd 00 c7 35 bc b6 b2 2d bd 9a 84 df bd
       -0.06678704 -0.011094809 -0.04240676 -0.109139636
000110 2f 29 06 be 78 40 be bd 98 a4 8f bd ad eb ba bd
       -0.13101648 -0.0928964 -0.07013816 -0.09126983
000120 6d 4b 96 bd 98 15 89 bd ec 40 8c bd 9b a5 1a be
       -0.07338605 -0.06693572 -0.0684832 -0.15102236
000130 70 a0 13 be de 5c f1 bd 49 90 0c be 5a 8c f8 bd
       -0.14416671 -0.11785291 -0.13726915 -0.12136145
000140 50 28 94 bd 38 a3 12 bd 62 61 cf bd 64 05 57 bd
       -0.072342515 -0.03580019 -0.10125996 -0.052495375
000150 c4 45 cb 3d f3 52 87 3d cd 16 71 3d c2 ab c6 3d
       0.09925416 0.06607618 0.058859635 0.09700729
000160 01 dd 7f 3d 2f e3 3e 3d 2d e3 2f 3d e0 8d c6 3c
       0.062466625 0.046603378 0.04294126 0.024237573
000170 53 b5 47 3d 92 8f ca 3d 01 35 77 3d 8b 71 17 3d
       0.04875691 0.09890665 0.060353283 0.036973517
000180 4c 3e 40 3d 83 f8 75 bd 44 83 25 bd 09 c7 0e bd
       0.04693441 -0.060051452 -0.040408388 -0.034857783
000190 e8 7d 27 bd 6c e0 f4 bc 13 17 27 be 7d f2 1e be
       -0.040891558 -0.029892169 -0.16317396 -0.1552219
0001a0 94 d1 99 bd 14 06 ef bd 30 60 13 be ad 5b 14 be
       -0.07510677 -0.11671081 -0.14392161 -0.14488097
0001b0 ac 63 ca bd f2 7e 82 bd 6c 59 b2 bd 75 d1 8c bd
       -0.09882292 -0.06371869 -0.08708462 -0.06875888
0001c0 e9 89 06 3e b2 c9 a2 3d 9c f7 fd 3d e5 cb 0a 3e
       0.13138546 0.079486266 0.12400743 0.13554342
0001d0 37 a5 a7 3d 32 a0 10 3e cb 42 dd 3d ab 69 04 3e
       0.08185809 0.1412361 0.108037554 0.12930934
0001e0 66 30 4a 3e 80 4d 09 3e 7a 2c 65 3d a3 10 d8 3c
       0.19745025 0.1340847 0.05595062 0.02637512
0001f0 42 8d d9 3c c9 44 a8 bc a3 2c 79 bd 58 ab 18 bb
       0.026556615 -0.020540612 -0.060833585 -0.0023295488
000200 53 42 59 bd 09 19 0e ba 2a 9c 46 bd 0d 2c cf bd
       -0.053041767 -0.00054206006 -0.048488773 -0.10115824
000210 cb d7 09 be b3 96 11 be 56 d4 38 be 34 0e 33 be
       -0.13461225 -0.14217643 -0.1804975 -0.17485887
000220 fb db 1f be 79 1e ed bd 09 8c d6 bd e0 62 a2 bd
       -0.1561126 -0.11578078 -0.10475928 -0.07929015
000230 f7 1a 90 3d 76 5f fa 3d ed 55 a4 3d f9 8e 0d 3e
       0.07036393 0.12225239 0.080242015 0.13824071
000240 7f 2b 08 3e 46 c6 17 3e db 1f 07 3e 00 93 d9 3d
       0.13297842 0.14821729 0.13195746 0.10623741
000250 53 8e 22 3e 2b ae b0 3d 6a 10 5e 3d 46 15 c9 3c
       0.15874605 0.0862697 0.054214872 0.024546277
000260 3a a6 da bc e8 64 42 3d 78 f7 88 3d 3a 88 b3 3c
       -0.026690591 0.047459513 0.06687826 0.021915544
000270 7c 60 fe 3b fe da 38 bc 4f 06 ff bc b0 ec 5f bd
       0.0077629667 -0.011282681 -0.031130938 -0.054669082
000280 d1 b2 c6 bd 7c 23 ce bd d4 1d cb bc ad 84 c4 bd
       -0.09702075 -0.10065362 -0.024794497 -0.095956184
000290 41 43 21 be 43 2c 5f bc 69 06 17 3b 79 c5 37 bd
       -0.15748312 -0.013621393 0.0023044592 -0.04486606
0002a0 1a 2b dd 3d a0 3b 60 3d eb 5f d1 3d 1f 29 27 3e
       0.107992366 0.054744363 0.10223373 0.1632428
0002b0 8b 94 b1 3d fd ea 07 3e d2 c3 db 3d f3 63 9e 3d
       0.086709104 0.13273235 0.10730709 0.077339076
0002c0 e2 24 9d 3d 02 7f cb 3d 20 1c 05 3e f6 80 d1 3d
       0.076730505 0.09936334 0.1299901 0.102296755
0002d0 bd ee 9e 3d 57 8c b0 3d 16 4f ad 3d bc 94 9f bc
       0.077603795 0.08620518 0.0846235 -0.019480102
0002e0 f1 ed 0e bc c0 38 3f 3c b1 b9 b5 3d a2 1a 6f 3d
       -0.008723722 0.011671245 0.088733084 0.05837501
0002f0 95 b3 50 3d 51 92 d1 3d f8 a0 97 3d 8f cc 01 3d
       0.050952513 0.10232986 0.07403749 0.031689223
000300 0d e7 68 bc 36 74 5b 3d 18 02 3a bc ca 71 8d bc
       -0.014215243 0.053577624 -0.011353038 -0.017266173
000310 ce e0 e4 3d 63 2b ff 3d d7 c5 dc 3d f0 ba 17 3e
       0.111756906 0.12459447 0.107799225 0.14817405
000320 dd f4 76 3d 1c 94 4f 3d 6b 51 6e 3d 97 cd 7d 3d
       0.060292114 0.050678357 0.058183115 0.061963644
000330 17 72 72 3d 83 ee fb 3d a0 74 6b 3e 4b 86 42 3e
       0.059190836 0.12301352 0.22993708 0.18996541
000340 ae f6 38 3e 50 54 f3 3d c7 d6 12 3e 5d 78 15 3e
       0.18062851 0.11881316 0.14339744 0.14596696
000350 c7 f7 fa 3d 39 a1 1a 3e 14 e3 58 3e f6 84 61 3e
       0.12254291 0.15100564 0.21180373 0.22023377
000360 71 ad d5 3d 18 28 04 3e 1c 55 f5 3d a2 90 09 3e
       0.10433472 0.1290592 0.11979124 0.1343408
000370 cb 4d 11 3d ad 9b f9 3c 90 d0 74 bb 9b ce f8 3c
       0.03547458 0.03046974 -0.0037355758 0.030371955
000380 25 cb 76 3d 1e 2c a0 3d e4 ef 98 3d 71 14 0b 3d
       0.060252327 0.07820915 0.074676305 0.03395504
000390 19 63 69 bc 3d 73 14 bd ac f7 47 ba 3b a9 8c 3c
       -0.014244818 -0.036242712 -0.00076281535 0.01717054
0003a0 d0 16 70 3d b0 05 be 3d 94 f3 5d 3e 02 0d 6c 3e
       0.058615506 0.092784286 0.21674949 0.23051837
0003b0 03 1c 42 3e e4 ad 4f 3e 25 83 70 3e 64 d8 96 3e
       0.18955998 0.20281178 0.23487528 0.29461968
0003c0 34 50 85 3e 1b eb 89 3e 37 01 99 3e ab 50 61 3e
       0.26037753 0.26937184 0.2988374 0.22003429
0003d0 80 0d 62 3e 52 9d 2d 3e c9 3e 13 3e 9b 58 d6 3d
       0.22075462 0.16954544 0.1437942 0.10466119
0003e0 70 c4 96 3d c5 d6 3a 3d e5 70 91 bc 43 15 8c bc
       0.07361686 0.045614976 -0.017754028 -0.017099982
0003f0 9e 70 45 3d 98 45 c4 3d 17 00 50 3d 63 b8 d1 3c
       0.048203103 0.095835865 0.050781336 0.025600618

fc1.bias f4 [128]
000000 c2 83 49 3d 71 2b d5 bc 55 fb 0e be 26 9e 33 bd
       0.04919792 -0.026021691 -0.13963063 -0.043851994
000010 26 d0 3d 3c fd 40 89 bc eb a5 06 be 27 c0 54 bd
       0.011585271 -0.016754622 -0.1314923 -0.051941063
000020 d0 5f 05 bc 26 64 b0 3d b9 ed c6 bd d5 04 8e bd
       -0.008140519 0.08612852 -0.09713311 -0.069345154
000030 c7 20 59 bb 8a 34 90 bc a8 f0 fd bd ff 08 6a 3c
       -0.003313111 -0.017603178 -0.12399417 0.014284371
000040 3c db 65 bd 77 e6 92 3c 2e d6 d3 bc a5 bf a8 bd
       -0.05611728 0.01793216 -0.025858965 -0.08239678
000050 84 5b ef bd bc 9b 31 bc 41 b6 a7 3d 44 7c a6 bb
       -0.11687377 -0.010840353 0.08189059 -0.0050807316
000060 b9 80 a2 bd ab 63 1d bd 73 9a a7 bd ea 15 84 bd
       -0.07934708 -0.03842513 -0.08183756 -0.06449492
000070 e6 9a b8 bc 15 14 c6 bd cf f4 07 be 91 8b e7 bd
       -0.022534799 -0.09671799 -0.13276981 -0.11305917
000080 b2 21 9f 3c ed 2e 33 bc ff 48 0d bd 94 0f 84 bd
       0.019425247 -0.010936481 -0.034493443 -0.06448284
000090 fb ec c4 bd 48 10 ef bc 6d 7b ac bd e2 7c 77 bd
       -0.09615513 -0.029182568 -0.08421979 -0.060421832
0000a0 d8 fd b3 bd 18 44 15 be 47 28 ba bd 0f 64 8c bd
       -0.08788651 -0.14576757 -0.090897135 -0.06855022
0000b0 e3 53 49 bd 8f e0 ad bd fb 60 06 be d4 7b a9 bd
       -0.049152266 -0.08490097 -0.13122933 -0.082755715
0000c0 17 76 9d bc fa 83 c7 bc c3 bf 15 bd c4 83 16 bd
       -0.019221349 -0.024354924 -0.03655983 -0.036746755
0000d0 29 d4 0f be ce 5c 9d bd be 3a 47 bd 63 be 04 be
       -0.14045776 -0.07683717 -0.048640005 -0.12963252
0000e0 4e cf 14 be 29 7f e5 3d 2c 96 00 be f6 60 f6 ba
       -0.14532205 0.112058945 -0.12557286 -0.0018797207
0000f0 f1 bc 71 3b 32 72 c5 bd 3a 0b 54 be 60 7e fb bd
       0.00368863 -0.09640922 -0.20707408 -0.122799635
000100 3a 48 0d 3d 26 71 b9 3d 36 f0 0d bd 9b c7 26 bd
       0.03449271 0.090547845 -0.03465291 -0.040717702
000110 fe c4 76 bd 47 02 a5 bd 4a 5b fe bd 68 2e a1 bc
       -0.06024646 -0.08057075 -0.12419756 -0.019675449
000120 3d 0b 93 bd 30 81 18 be b1 15 10 3d 4c 63 98 bc
       -0.07179878 -0.14893031 0.035176937 -0.018602036
000130 03 32 32 bd 2e 26 e0 bd be 48 6d bd 39 ac 58 bd
       -0.043504726 -0.10944782 -0.0579307 -0.05289862
000140 af 3b 1f bd a9 93 c8 bd 7e e8 1e be c8 3e 0a be
       -0.038875278 -0.09793789 -0.15518376 -0.13500512
000150 71 dc 89 39 6a e9 e3 bd f9 9b 98 bd d0 96 83 bc
       0.00026294918 -0.111285046 -0.074516244 -0.016063124
000160 76 25 af bd 1c 1b b2 bd e8 c2 7b bc 0d ad c7 bd
       -0.08552067 -0.08696577 -0.0153662935 -0.09749804
000170 96 68 cc bd a3 a1 60 3c 00 43 f6 bd e4 5a b6 3c
       -0.09980886 0.013710412 -0.12024498 0.022260137
000180 e9 4c 14 3d 54 e6 64 3d 92 53 68 bd b7 5a 3c bc
       0.03620616 0.05588372 -0.056720324 -0.0114962375
000190 b0 0c a2 3d ff 4f 71 bd 83 c1 13 be 9b 0a 1a bd
       0.07912576 -0.05891418 -0.14429288 -0.03760777
0001a0 e4 3d 57 bd 80 c5 7f bc 99 4a 26 be 0b 04 99 bc
       -0.052549258 -0.0156110525 -0.16239394 -0.018678686
0001b0 8d 0e 15 be 30 32 9a bd 47 59 b6 3b 44 03 c4 bd
       -0.14556332 -0.07529104 0.005564842 -0.09570935
0001c0 6c 66 e2 bc df c7 0a bc 17 47 bd bd f7 f7 bd bd
       -0.02763673 -0.008470505 -0.09242075 -0.09275811
0001d0 6c 75 b9 bd cd 83 cd 3c 77 c6 3c 3c ac 51 a5 bc
       -0.090555996 0.025087262 0.011521927 -0.020180546
0001e0 96 c1 ed bc 00 dd b4 bd a4 34 be bd 40 d5 aa bd
       -0.029022973 -0.08831215 -0.09287384 -0.083414555
0001f0 be 05 8f bc 9a c8 ff bb 00 0d a9 bd fd da 04 be
       -0.017458793 -0.007805896 -0.08254433 -0.12974162

fc2.weight f4 [128, 128]
000000 f1 f2 67 3d bf 93 a0 be ef c9 de bc 21 f3 4c bd
       0.05662817 -0.3136272 -0.027195899 -0.050036553
000010 a5 54 f1 bd 3d 40 25 be cc d8 94 39 79 d3 50 bd
       -0.11783723 -0.16137786 0.00028390286 -0.050982926
000020 af 3d 0a bc 7d 02 5e 3e 8e 87 df 3d 42 ab 51 bc
       -0.008437558 0.21680637 0.10914527 -0.012797179
000030 97 65 86 3e 13 ed 1c be c9 42 e1 bd fe 69 04 3e
       0.26249382 -0.15324812 -0.109990664 0.12931058
000040 57 8f ec 3c d5 65 7f 3e ac 8d 31 3d b4 e4 b4 bd
       0.028876944 0.2494119 0.043348 -0.08832684
000050 4e cd df 3c 12 fa e7 bb 16 cc 89 3d b2 3d ec bd
       0.027319577 -0.0070793713 0.067283794 -0.11535205
000060 51 fe d2 3d 9b 49 55 be b5 18 04 bd ba b0 26 bd
       0.10302413 -0.2082886 -0.032250125 -0.040695883
000070 84 d5 08 3e 84 3b 23 3d 59 83 74 be 36 cb 7c 3d
       0.133627 0.03985168 -0.2387823 0.061717235
000080 9f ba 28 3d 00 46 4b 3d 16 7a 53 3c 0a 0d 22 be
       0.0411936 0.049627304 0.0129075255 -0.15825287
000090 00 78 2a be 5a d1 8d bd 72 4c a5 3d 1a f8 00 be
       -0.16647339 -0.06924696 0.080712214 -0.12594643
0000a0 58 3e 0b 3d 9b f4 09 be d4 a7 f1 3d 9a fd 63 3e
       0.033995003 -0.13472216 0.11799589 0.2226471
0000b0 84 2b ab bd b9 75 95 3d b6 63 6c bd ca da 35 be
       -0.08357909 0.072978444 -0.05771228 -0.17759243
0000c0 1f bf 2d bd dc 06 4a 3e b4 9b f3 3a 6f 18 55 bd
       -0.042418595 0.19729179 0.0018585832 -0.052025255
0000d0 c3 7b e7 bd 95 8a 01 3e 3a 98 21 3e 1b 81 6e bc
       -0.113029025 0.12650521 0.15780726 -0.014557148
0000e0 b8 8e 3e be e9 dc 68 bd 94 46 99 be dd 63 5d bb
       -0.1860913 -0.0568513 -0.2993666 -0.0033781447
0000f0 fc 79 2c 3d 2d 35 52 be 03 57 c6 bd 66 8b 50 be
       0.04210852 -0.20528097 -0.09684565 -0.20365676
000100 15 7b a6 bd b2 bf 8d bd 75 2c 13 3d 7e 3a 85 bc
       -0.08128945 -0.069213286 0.03593107 -0.016263243
000110 d7 41 a7 bd 40 b0 e2 bd b8 4f d7 bd f2 3b 5f bd
       -0.08166855 -0.11068773 -0.10513252 -0.054500528
000120 e9 e0 ce bd 2b 7f 0f 3c db 37 ea 3d 02 fe b8 bd
       -0.10101492 0.008758347 0.11436435 -0.09032823
000130 14 2e 4c 3d 3a b2 11 be a8 fa 43 be 4d 09 58 be
       0.04984863 -0.14228144 -0.19138587 -0.21097298
000140 c5 65 71 3d 82 ab bc bd fb bf 89 3e 4e 19 00 3e
       0.058934946 -0.092124 0.26904282 0.12509653
000150 40 92 27 be 1c 2f 07 bb 34 a0 81 bd 44 ad ab 3d
       -0.16364384 -0.0020627445 -0.063293844 0.08382657
000160 d6 34 79 3e bc ef 70 be 26 5a a0 bd 46 4d 02 3d
       0.24336562 -0.23528951 -0.078296944 0.031811975
000170 e0 d8 0c 3e 6a 57 55 3e 0e bf ae be 8b 79 a0 3d
       0.13754606 0.20834127 -0.34130138 0.078356825
000180 01 1e f3 bd a3 14 5d be fe 31 7a be 08 2e c2 bc
       -0.11870957 -0.21589904 -0.24433133 -0.02370359
000190 4b 44 7a bd 10 dd 8e 3c e6 24 fb bc 5d 28 b4 bb
       -0.061100286 0.017439395 -0.030657243 -0.0054979757
0001a0 31 75 6a 3d 15 1b 66 bc 99 a6 9a bc c4 e3 7b 3d
       0.05724067 -0.014044543 -0.018878268 0.06149651
0001b0 9a b8 2f be 90 7f b5 3b d2 d4 6f 3c c7 fe c6 bd
       -0.17160264 0.0055388883 0.014638143 -0.09716564
0001c0 c1 ca 8e 3e 63 46 d3 3d 59 9c c0 3b 48 77 a1 bd
       0.27889064 0.103161596 0.005878013 -0.07884079
0001d0 32 30 9b 3c 86 da 15 3e 15 a0 55 bc 1e ef da 3c
       0.01894388 0.14634141 -0.013038655 0.026725348
0001e0 38 6f 37 bd 0b 02 62 3e 87 6c ed 3d fe 7a 03 bd
       -0.0447838 0.22071092 0.115929656 -0.032099716
0001f0 d9 03 2a 3c 96 60 1d be 88 b2 d0 3d 05 0b e7 3d
       0.010376894 -0.15368876 0.10190302 0.11281399
000200 3b d5 74 bd 5f ba 81 be 14 c1 41 be 10 69 a7 3c
       -0.059773665 -0.25337502 -0.1892131 0.02043584
000210 d1 40 aa bd 9a 83 f1 bd 3e 95 c9 3d 98 da 9d be
       -0.08313144 -0.11792679 0.09842919 -0.30830836
000220 b4 a7 15 be 9d 57 6f 3e 57 3a 1d be 39 30 98 3e
       -0.14614755 0.23373266 -0.15354286 0.2972429
000230 c2 fe bd bd ce 1e ef bd 0e 42 a5 3d ed 2c a3 bc
       -0.09277107 -0.116757974 0.080692396 -0.019918883
000240 d9 88 4e bd 3e 83 ff bd 21 19 8a bd c3 1d 10 3e
       -0.050423477 -0.12476204 -0.06743074 0.14073853
000250 0e e3 e8 3c c8 ae e4 3d d6 50 99 3e 49 f4 63 3d
       0.02842858 0.111661494 0.29944485 0.05565289
000260 a5 92 7c bd bc 28 19 be f3 9d b0 bd a2 46 f0 3c
       -0.06166329 -0.14956945 -0.086238764 0.029330555
000270 2d 2f 90 3b d7 f1 b8 bd 5c ef e8 3c 73 c0 eb bd
       0.004400155 -0.09030502 0.028434448 -0.11511316
000280 8b be 9e 3d 05 59 2a be 35 67 d7 bd 0e c7 1e 3a
       0.07751187 -0.16635521 -0.10517732 0.0006056883
000290 c5 6e 38 3d 42 44 5a bd b8 b9 ed bd dc 22 83 bd
       0.045027513 -0.053287752 -0.11607689 -0.06403133
0002a0 e1 39 ae 3d 1e 17 9c bd aa a9 50 3d bf 02 4a bd
       0.08507133 -0.07621597 0.050943054 -0.049319025
0002b0 e8 e9 c8 b9 a4 45 e9 bc bb 68 ae 3d 97 4a a4 3d
       -0.00038321246 -0.02847559 0.085160695 0.080220394
0002c0 f4 5f fc bc c3 0f 8f bd 02 17 da 3c 9e 8c 36 3d
       -0.030807473 -0.06985428 0.0266223 0.044567697
0002d0 69 97 8d 3a 4a be 76 3c 58 79 05 3e 63 b2 13 bd
       0.001080257 0.015060017 0.1303457 -0.036058795
0002e0 df ac 00 3e ae 56 17 3d 84 1d 11 3e 80 e3 71 3e
       0.12565945 0.0369479 0.14171416 0.2362194
0002f0 b5 b7 b5 bc 4f f6 12 3d 35 53 3f be 0a d1 85 be
       -0.022182325 0.03587943 -0.18684085 -0.26136047
000300 78 1a c2 3d dc af 02 be 09 19 35 be 52 35 2f bc
       0.09477705 -0.12762398 -0.17685331 -0.010693865
000310 95 21 63 be 9d 82 27 3e 3f c8 09 be bf f7 c3 3d
       -0.2218078 0.16358419 -0.13455294 0.09568738
000320 0a 98 8b 3b be b9 a3 3e ae 17 91 bc 8b 0a cd bd
       0.004260068 0.31977648 -0.017711487 -0.100117765
000330 6a bc 98 3d a4 7a e7 bd bb 19 75 bd 2a 6e 8c 3d
       0.07457812 -0.11302689 -0.05983899 0.068569496
000340 95 f4 35 be bd 2d 8a bc e9 a1 d6 bd 51 f7 26 be
       -0.17769082 -0.016867513 -0.10480101 -0.16305281
000350 ff 3a 1c be df 6c 0a 3d 98 17 cf bd 33 8a 91 bd
       -0.1525688 0.033795234 -0.10111922 -0.071064375
000360 ee 79 09 be c5 9b 2d 3c 0d 13 56 be 0d a4 95 bc
       -0.13425419 0.01059622 -0.20905705 -0.018266702
000370 85 b5 ac bd 64 0e 0c be 0f cd 57 3e 11 63 7f bd
       -0.084330596 -0.13677365 0.21074317 -0.062350336
000380 05 ca a7 bc d4 b9 21 bd 90 60 4d bd 9a d4 6b bd
       -0.020482073 -0.03948386 -0.050140917 -0.0575758
000390 38 0c dc 3d ba f9 20 be 37 e7 65 be c9 99 7f bc
       0.10744518 -0.15720263 -0.22451483 -0.01560063
0003a0 cc d3 b1 bd ae 5d 45 3d 93 48 96 bd 2b 3f c0 bd
       -0.08682975 0.048185043 -0.07338061 -0.09387048
0003b0 fe c0 87 3d d2 66 11 3d de 7d 0b bc 8b 19 14 bd
       0.06628607 0.035498448 -0.008513896 -0.036157172
0003c0 b5 29 c4 3d 6f a6 72 bd 5f e7 cb bd c7 95 71 3e
       0.095782675 -0.059240755 -0.0995624 0.23592292
0003d0 67 54 60 bd a5 0d 43 be c9 f0 ac 3d 8e 84 ad bd
       -0.054767992 -0.19048174 0.084443636 -0.084725484
0003e0 32 7e 1c 3d 26 c1 99 be 52 22 3a bd a4 4a df 3c
       0.038206287 -0.30030173 -0.045442887 0.027257271
0003f0 32 e3 4d bd 07 65 6c be 67 05 43 bd d6 19 01 3e
       -0.0502655 -0.23085414 -0.047612574 0.12607512

fc2.bias f4 [128]
000000 56 80 9f 3d a3 49 a4 3d c0 6e cc 3d eb a4 bb bc
       0.0778815 0.080218576 0.099820614 -0.022905787
000010 aa ef 81 3e 39 d2 fd bd 50 ec 74 3d 9b 85 61 bd
       0.25378162 -0.123936124 0.059795678 -0.055059057
000020 f5 65 e5 bc a9 f8 59 3e b2 1a 49 bc d0 a0 32 3d
       -0.028002718 0.21286263 -0.012274431 0.043610394
000030 76 f6 75 3d 6d 02 0d 3d 28 aa 6d 3d 96 af b2 bd
       0.060049497 0.03442614 0.0580236 -0.087248966
000040 2e 12 a9 3c 70 d0 9d 3d c7 eb 8b 3d 2f 4d 12 3e
       0.020638552 0.07705772 0.0683208 0.14287256
000050 b6 07 3d 3e 8b e6 63 3e 7e 30 9d bc 2f 47 df 3d
       0.18459973 0.22255914 -0.019188162 0.10902249
000060 b9 26 8c 3d 69 58 c3 3c b6 75 89 3d 4a 7f ca bd
       0.06843323 0.023845868 0.06711905 -0.0988756
000070 d9 80 b2 bd 19 7b ec bc cd 49 30 3d 5b 32 45 3c
       -0.08715982 -0.028867291 0.043039132 0.012035931
000080 93 9e 91 bd 1a 12 b8 3e 00 16 4f bd b1 e7 1a be
       -0.07110324 0.3595131 -0.05055809 -0.15127446
000090 2c df 52 bd 5c b2 69 bd 4e af 26 be f6 44 2d 3e
       -0.051482365 -0.057054862 -0.16277811 0.16920838
0000a0 c9 c1 32 be 43 1e 00 3d 0f ca af 3e eb ed 86 bc
       -0.17456736 0.03127886 0.34333846 -0.01647087
0000b0 34 2c 01 3e 8a a8 b6 3d 63 ea 21 bb 6a 1f 1b be
       0.12614518 0.08918865 -0.0024706356 -0.15148702
0000c0 7a d6 f5 bd df 81 ea 3c 4a 12 40 3d cd cd 78 3d
       -0.12003799 0.02862638 0.04689244 0.060743142
0000d0 0b dd 4a bc e4 fd 21 be 12 8e 9c 3e 80 1e ec bd
       -0.012381802 -0.15819508 0.3057714 -0.11529255
0000e0 24 1c 80 bc 56 e8 88 bd 60 93 a8 bc 15 c1 09 3e
       -0.015638418 -0.066849396 -0.020578086 0.13452561
0000f0 6d 7b 4b 3b 87 e4 88 bd c7 6a 19 3e b1 3d 78 3d
       0.003104891 -0.06684213 0.14982139 0.06060571
000100 17 e0 26 3d 1c fd 06 bb eb fe 94 3d cc fd d9 3c
       0.040741052 -0.0020597642 0.07275184 0.026610278
000110 6e d8 5b bd de 0e 1c bd 4a 5b 8c 3e 55 1b 61 bd
       -0.0536732 -0.038100116 0.27413398 -0.054957706
000120 30 7e 20 bc 4c cd b8 bd 22 85 68 3e 97 3e 5f bd
       -0.00979571 -0.09023532 0.22707036 -0.05450305
000130 eb 52 16 be fc d6 f9 3d 78 bb d9 3c 68 c4 f4 3c
       -0.14680068 0.12199208 0.02657865 0.02987881
000140 f2 3c e0 3c 9b a5 ea bd ee f4 b0 3d 19 b8 31 3d
       0.027372811 -0.11457368 0.08640467 0.04338846
000150 4c 9d d8 bd 37 64 4b bd d0 97 10 be ba f6 aa 3c
       -0.10576877 -0.04965612 -0.14120412 0.020869602
000160 ce 0d 18 3e 6c 90 63 3d 65 6c 02 be df e5 2c bd
       0.14849016 0.055557653 -0.12736662 -0.04221141
000170 3d 34 b8 bd 4b 9a 83 3a ae 72 1d be ee f9 2d 3d
       -0.08994339 0.001004049 -0.15375778 0.04247468
000180 ea fc 82 3d 5c a1 87 bd 1e 80 84 3c 6f bd f2 bd
       0.06395896 -0.06622574 0.016174372 -0.11852538
000190 e8 35 04 3e 19 90 c3 bd ec 1a 8b 3d 35 05 2b 3e
       0.12911189 -0.09548969 0.06792244 0.16701205
0001a0 70 72 1e be 42 5e e1 bd c0 95 89 3c 1e 12 de bb
       -0.15473342 -0.110043064 0.01679504 -0.006777062
0001b0 c0 85 4c be c2 6f 07 3e 63 5e 6a bc 25 fc b2 3c
       -0.19972897 0.13226226 -0.01430473 0.021848748
0001c0 d8 f2 49 3d 00 d2 f3 bc cc 61 25 3e 35 6a 01 3e
       0.04930386 -0.029763222 0.16150588 0.12638171
0001d0 de 2a 3f 3e d5 89 f8 3c 5d 31 4d bd 5c c9 ed 3d
       0.18668696 0.030339161 -0.050095905 0.11610672
0001e0 a5 50 e7 bd 17 42 bb bd da 51 89 3d 79 57 3a bd
       -0.112946786 -0.09143465 0.06705065 -0.045493577
0001f0 07 ad 49 bd bb d8 d2 bd fe a8 8a bd cf f5 3b 3d
       -0.049237277 -0.10295244 -0.06770514 0.04588872

fc3.weight f4 [10, 128]
000000 32 be b6 3b a7 2a af bb e4 c2 52 be 57 4e 44 be
       0.0055768723 -0.0053456607 -0.20582157 -0.1917051
000010 b9 8c 6a 3e e5 9d bc bc cf e2 24 be e8 23 cb 3d
       0.22905244 -0.023024509 -0.16102146 0.09918958
000020 b7 ee 24 3e f5 62 7c 3e e7 1e fb 3b fd dd d8 bd
       0.16106687 0.24647124 0.007663596 -0.10589216
000030 99 7b 5c be dd a1 30 3d 6a 7a b2 3d fe 1d fc 3d
       -0.21531524 0.043123115 0.08714755 0.12310408
000040 00 89 91 bd 1c 40 ab be 64 9a bf bd 5e 22 48 be
       -0.07106209 -0.3344735 -0.093556195 -0.1954436
000050 ea 5b 31 3e 0f b9 d1 be d8 a9 32 38 c4 93 a0 3c
       0.17320219 -0.409615 4.2596686e-05 0.01960171
000060 58 13 67 3d cc 25 ac 3d 13 6e 7f bd da d6 0c be
       0.056414932 0.08405647 -0.062360834 -0.13753834
000070 3a c3 c9 3d e3 b3 64 be 7d 71 fc bd 90 c9 66 bc
       0.0985169 -0.22334246 -0.12326334 -0.014086142
000080 bc 1c 7c bd b9 e8 4b be e1 89 0a 3e d4 05 61 bc
       -0.06155084 -0.19912995 0.13529159 -0.0137343
000090 b1 eb 9f 3d 85 15 96 3e 19 e5 10 be a5 55 12 be
       0.078086264 0.29313293 -0.14149894 -0.14290483
0000a0 95 4d 31 be 15 0d 23 be 0b 2f 22 3d c2 cd 95 3d
       -0.17314751 -0.15922959 0.039595645 0.07314636
0000b0 5f 38 34 3e f4 2f 82 3d 30 95 a8 3d b2 7d 07 bd
       0.17599629 0.063568026 0.0823158 -0.033078857
0000c0 7b ac 8c 3b f1 57 09 bd 54 8b 7b be 9b 14 5d 3e
       0.004293022 -0.033531133 -0.24564868 0.21589892
0000d0 60 bf 84 3d 63 fa 07 bd be e7 ca bd c5 7e d5 3d
       0.064818144 -0.03319777 -0.099074826 0.1042457
0000e0 9b 4b fc 3b 8a a4 82 3e 05 ef 62 3e bf 4e b5 3d
       0.0076994426 0.25516158 0.22161491 0.0885291
0000f0 07 2d 2e be ca ab f6 3d 10 95 4c 3e 58 83 08 3e
       -0.17009364 0.12044485 0.19978738 0.13331354
000100 83 68 cd bd 79 eb e3 bc 35 aa 13 be b6 42 82 3d
       -0.100297 -0.027822243 -0.14420398 0.0636038
000110 89 ba d5 3c 0c ea 07 be 7e 73 0d be 8b 54 ee 3b
       0.026089923 -0.13272876 -0.13813588 0.007273262
000120 26 07 ec bc 26 47 47 be df 3e e3 bd 3a 15 58 bd
       -0.028812002 -0.19460735 -0.11095976 -0.05275462
000130 83 21 f0 bd ac 4b 20 be d2 6d c6 3d 26 ed 6b be
       -0.11725142 -0.15653867 0.09688915 -0.23039684
000140 93 5a 01 be 9e ea b3 3d 56 a6 ec 3c 7b cc 2f bd
       -0.12632208 0.08784984 0.028887909 -0.042919617
000150 1a 19 43 be 9b f8 68 be 49 73 12 3e 0f 4e 1e 3d
       -0.19052544 -0.22751085 0.1430179 0.03864866
000160 62 ef e2 3d ce b3 43 3d 24 44 82 bd 20 31 29 be
       0.11080815 0.047778897 -0.06360653 -0.16522646
000170 c1 88 e8 3a 52 0f 18 3d 87 4f 76 bd ff fc a0 be
       0.0017740951 0.037123986 -0.060134437 -0.3144302
000180 6a 87 6e 3d 18 7c ac 3c 86 df 73 3d 51 a0 02 3d
       0.05823461 0.021055266 0.05953934 0.03189117
000190 13 3e b5 3c 5f 29 34 3e 42 54 99 be 37 ef a6 3c
       0.022124326 0.17593907 -0.29947096 0.020377738
0001a0 94 df 69 3c 74 eb 89 3d 4a 73 a1 bd 26 bf 68 be
       0.014274497 0.06734362 -0.07883318 -0.22729167
0001b0 e2 a8 67 bc f5 05 0c be a3 6a a6 bc 9f 47 b3 3c
       -0.014139386 -0.13674147 -0.02031452 0.021884738
0001c0 e9 df fb bc 8c 2d aa bd ee 56 10 3e 13 f9 25 bd
       -0.030746417 -0.083094686 0.14095661 -0.04052074
0001d0 61 c5 12 be 47 22 03 be 01 96 1d 3e 05 66 92 be
       -0.14333107 -0.12806045 0.15389253 -0.2859346
0001e0 23 1b 4c 3e ba b9 2c 3d c6 e1 00 be 98 27 93 bd
       0.19932227 0.04216931 -0.12586126 -0.07185286
0001f0 7c 83 25 be 96 a7 08 bd e8 6c 73 bd 86 5d 9e 3d
       -0.16163439 -0.033362947 -0.059430033 0.07732682
000200 d5 4f e6 3d 19 8e 9d bd 2d a6 e4 be cd 5f 9a be
       0.112456955 -0.076931186 -0.44658032 -0.30151215
000210 8e 57 12 bc a5 b2 01 3e ea ad fe 3d 04 a4 4f 3d
       -0.0089320075 0.12665804 0.12435515 0.050693527
000220 f8 16 bf bc a4 7d e2 bd 5d 1b 75 3d 3f 93 87 3d
       -0.023326382 -0.1105912 0.05984055 0.06619882
000230 65 63 ae 3d 05 2b 1b bd 0f b2 91 bc 92 bb 32 3c
       0.08515052 -0.037882823 -0.0177851 0.010908978
000240 72 e4 34 be 43 47 c5 3d 7c b4 13 3e 64 b0 c8 3c
       -0.1766527 0.09632733 0.14424318 0.024498172
000250 39 f2 47 3b 80 af 22 bc bd c2 ea 3d 28 62 64 3e
       0.0030509366 -0.009929538 0.11462925 0.22303069
000260 2a ad 5a bd 98 9a 0e be 29 96 e0 bd 9b 25 2f 3d
       -0.0533878 -0.1392616 -0.10966141 0.042760473
000270 e0 90 da 3d 5a 49 d1 bc 4f dd 17 3e 13 db 3c bd
       0.10672164 -0.025547672 0.14830516 -0.046107363
000280 4f 30 93 3c f0 42 9c be 70 0e c9 3d 6f 5e 33 3e
       0.017967371 -0.3051982 0.09817207 0.17516492
000290 03 7e c5 bc 3a 6b 10 be d6 58 a9 3d 60 34 76 bd
       -0.024107939 -0.14103404 0.08268897 -0.060108542
0002a0 50 02 21 3e 06 8f ee bb 2f 67 27 be c2 59 99 3d
       0.15723538 -0.0072802333 -0.16347955 0.07487823
0002b0 70 8b 63 be fb 67 35 bd 93 b5 1c bd bc 3f 14 3e
       -0.2222116 -0.044288617 -0.0382591 0.14477438
0002c0 d4 c9 9e bd 34 76 02 be 44 41 00 3b 31 91 ff 3d
       -0.077533394 -0.12740403 0.0019570151 0.12478865
0002d0 7c c2 62 3e 48 85 2b 3d 8c 15 6a be c6 2e a5 bd
       0.22144502 0.041875154 -0.22859782 -0.08065562
0002e0 0d f9 24 bd 93 7e 89 3d a5 ac 0c be 1b e7 26 be
       -0.040276576 0.06713595 -0.13737734 -0.16299097
0002f0 39 a6 81 3e 58 f4 2a 3d b1 1d ae bc 10 1f ea bd
       0.2532213 0.04173693 -0.021254392 -0.11431706
000300 26 2c b5 bc 5c 7a 51 3d 23 be cb 3d e1 47 e8 bc
       -0.022115778 0.05114208 0.09948375 -0.028354587
000310 a2 87 f9 bc 96 5d 8f bc 01 1a 97 be 89 ec b2 bd
       -0.030460183 -0.01750068 -0.29512027 -0.08736522
000320 56 cf be bd c1 cc 77 bb 99 c8 bd bd 24 52 ab bb
       -0.0931689 -0.0037811252 -0.092667766 -0.005228298
000330 58 9f 5d 3e 54 a2 92 3d 9d 0d 7c bd 71 43 6b be
       0.21642816 0.07159868 -0.06153642 -0.22974946
000340 b9 9a 13 3d c0 06 8d 3c 8c 85 7a 3d f4 81 0b be
       0.036036227 0.017215133 0.061162516 -0.13623792
000350 7b 15 f3 3d 9a fb 0f be 70 60 2e 3e 8b cd 1a bd
       0.118693314 -0.14060822 0.17028975 -0.037793677
000360 98 51 0d be ee da fa bd 1e 35 ae 3b e2 af 38 be
       -0.13800657 -0.12248789 0.0053163907 -0.18035844
000370 30 d0 26 be 56 34 8c bd 07 4b 4f 3e 24 70 f2 3d
       -0.16290355 -0.0684592 0.20243464 0.118377954
000380 78 f5 27 3e ed 0d a6 bd d8 b3 5b bd 22 a2 3d be
       0.16402233 -0.08108125 -0.05363831 -0.1851888
000390 44 be 7f bb 92 bb 89 bd 95 0d 48 3c de f5 db 3d
       -0.003902332 -0.06725229 0.012210269 0.10740255
0003a0 fb d1 d0 3c 9b b7 4c be a6 bf b5 3c e8 a2 c9 bd
       0.025490751 -0.19991915 0.022186112 -0.09845525
0003b0 71 d6 e0 bc 4c 0d b8 bc ce 24 20 bc e4 6b 8d 3d
       -0.027446004 -0.022467278 -0.0097744 0.06905344
0003c0 2b 38 2e 3e 54 a2 00 be da 8a 56 bb 34 28 31 bd
       0.17013614 -0.12561923 -0.003273657 -0.04325123
0003d0 d1 a8 8e 3d 18 f1 bd bc 55 39 b6 bd 0e 1e e0 3c
       0.06965793 -0.023186252 -0.08897654 0.027358081
0003e0 8b bb fe 3d 5d 68 1d 3e 7d 22 5b 3d e5 e7 5b 3d
       0.12438115 0.15371843 0.053499687 0.05368795
0003f0 1e 53 92 3c 89 2d 34 3c 93 86 44 3d ed 68 cf be
       0.017861899 0.010997185 0.047979902 -0.4050974

fc3.bias f4 [10]
000000 29 c9 cc bd bb f2 67 be 03 de 61 bd 77 9c 57 3d
       -0.09999306 -0.22651188 -0.055143367 0.05263945
000010 a5 f4 fd bd 53 55 ce 3d df 6d fe bc bc ab 48 be
       -0.12400178 0.10074868 -0.03105825 -0.19596761
000020 22 b6 43 3e c9 e9 10 3e
       0.19112447 0.14151682
